…
e, single_word=False, normalized=True), 'pad_token': AddedToken("<pad>", rstrip=False, lstrip=False, single_word=False, normalized=True), 'cls_token': AddedToken("<s>", rstrip=False, lstrip=False, single_word=False, normalized=True), 'mask_token': AddedToken("<mask>", rstrip=False, lstrip=True, single_word=False, normalized=True)}, clean_up_tokenization_spaces=True)
Downloading pytorch_model.bin: 100%|███████| 1.63G/1.63G [00:47<00:00, 34.4MB/s]
Downloading (…)neration_config.json: 100%|█████| 363/363 [00:00<00:00, 19.1kB/s]
model BartForConditionalGeneration(
  (model): BartModel(
    (shared): Embedding(50264, 1024, padding_idx=1)
    (encoder): BartEncoder(
      (embed_tokens): Embedding(50264, 1024, padding_idx=1)
      (embed_positions): BartLearnedPositionalEmbedding(1026, 1024)
      (layers): ModuleList(
        (0-11): 12 x BartEncoderLayer(
          (self_attn): BartAttention(
            (k_proj): Linear(in_features=1024, out_features=1024, bias=True)
            (v_proj): Linear(in_features=1024, out_features=1024, bias=True)
            (q_proj): Linear(in_features=1024, out_features=1024, bias=True)
            (out_proj): Linear(in_features=1024, out_features=1024, bias=True)
          )
          (self_attn_layer_norm): LayerNorm((1024,), eps=1e-05, elementwise_affine=True)
          (activation_fn): GELUActivation()
          (fc1): Linear(in_features=1024, out_features=4096, bias=True)
          (fc2): Linear(in_features=4096, out_features=1024, bias=True)
          (final_layer_norm): LayerNorm((1024,), eps=1e-05, elementwise_affine=True)
        )
      )
      (layernorm_embedding): LayerNorm((1024,), eps=1e-05, elementwise_affine=True)
    )
    (decoder): BartDecoder(
      (embed_tokens): Embedding(50264, 1024, padding_idx=1)
      (embed_positions): BartLearnedPositionalEmbedding(1026, 1024)
      (layers): ModuleList(
        (0-11): 12 x BartDecoderLayer(
          (self_attn): BartAttention(
            (k_proj): Linear(in_features=1024, out_features=1024, bias=True)
            (v_proj): Linear(in_features=1024, out_features=1024, bias=True)
            (q_proj): Linear(in_features=1024, out_features=1024, bias=True)
            (out_proj): Linear(in_features=1024, out_features=1024, bias=True)
          )
          (activation_fn): GELUActivation()
          (self_attn_layer_norm): LayerNorm((1024,), eps=1e-05, elementwise_affine=True)
          (encoder_attn): BartAttention(
            (k_proj): Linear(in_features=1024, out_features=1024, bias=True)
            (v_proj): Linear(in_features=1024, out_features=1024, bias=True)
            (q_proj): Linear(in_features=1024, out_features=1024, bias=True)
            (out_proj): Linear(in_features=1024, out_features=1024, bias=True)
          )
          (encoder_attn_layer_norm): LayerNorm((1024,), eps=1e-05, elementwise_affine=True)
          (fc1): Linear(in_features=1024, out_features=4096, bias=True)
          (fc2): Linear(in_features=4096, out_features=1024, bias=True)
          (final_layer_norm): LayerNorm((1024,), eps=1e-05, elementwise_affine=True)
        )
      )
      (layernorm_embedding): LayerNorm((1024,), eps=1e-05, elementwise_affine=True)
    )
  )
  (lm_head): Linear(in_features=1024, out_features=50264, bias=False)
)
ERROR:    Error loading ASGI app. Could not import module "app.__main__".
(base) macbook-air:Docker student$ docker run -it -v "$(pwd):/home/app" -p 4000:4000 -e PORT=4000 fastapi
model_name facebook/bart-large-cnn
Downloading (…)olve/main/vocab.json: 899kB [00:00, 9.74MB/s]
Downloading (…)olve/main/merges.txt: 456kB [00:00, 5.59MB/s]
Downloading (…)lve/main/config.json: 1.58kB [00:00, 2.64MB/s]
…
